…
sampling_stop_iter: 	50000	
sampling_start_value: 	1.0	
sampling_changing_rate: 	2e-05	
num_hidden: 	128,128,128,128	
filter_size: 	5	
stride: 	1	
patch_size: 	2	
layer_norm: 	0	
in_shape: 	[5, 1, 128, 128]	
data_name: 	cikm	
metrics: 	['mse', 'mae', 'ssim', 'psnr']	
2026-01-05 17:39:25,084 - Model info:
scevm_lstm_Model(
  (MSE_criterion): MSELoss()
  (cell_list): ModuleList(
    (0): SpatioTemporalLSTMCell(
      (scema): SCEMA(
        (sc_conv): ScConv(
          (SRU): SRU(
            (gn): GroupBatchnorm2d()
            (sigomid): Sigmoid()
          )
          (CRU): CRU(
            (squeeze1): Conv2d(66, 33, kernel_size=(1, 1), stride=(1, 1), bias=False)
            (squeeze2): Conv2d(66, 33, kernel_size=(1, 1), stride=(1, 1), bias=False)
            (GWC): Conv2d(33, 132, kernel_size=(3, 3), stride=(1, 1), padding=(1, 1))
            (PWC1): Conv2d(33, 132, kernel_size=(1, 1), stride=(1, 1), bias=False)
            (PWC2): Conv2d(33, 99, kernel_size=(1, 1), stride=(1, 1), bias=False)
            (advavg): AdaptiveAvgPool2d(output_size=1)
          )
        )
        (ema): EMA(
          (gn): GroupNorm(6, 132, eps=1e-05, affine=True)
          (softmax): Softmax(dim=-1)
          (agp): AdaptiveAvgPool2d(output_size=(1, 1))
          (pool_h): AdaptiveAvgPool2d(output_size=(None, 1))
          (pool_w): AdaptiveAvgPool2d(output_size=(1, None))
          (conv1x1): Conv2d(22, 22, kernel_size=(1, 1), stride=(1, 1))
          (conv3x3): Conv2d(22, 22, kernel_size=(3, 3), stride=(1, 1), padding=(1, 1))
        )
      )
      (vss_blocks): ModuleList(
        (0): VSB(
          (ln_1): LayerNorm((132,), eps=1e-06, elementwise_affine=True)
          (drop_path): Dropout(p=0.1, inplace=False)
          (vss_block): VSSBlock(
            (ln_1): LayerNorm((132,), eps=1e-06, elementwise_affine=True)
            (self_attention): SS2D(
              (in_proj): Linear(in_features=132, out_features=528, bias=False)
              (conv2d): Conv2d(264, 264, kernel_size=(3, 3), stride=(1, 1), padding=(1, 1), groups=264)
              (act): SiLU()
              (out_norm): LayerNorm((264,), eps=1e-05, elementwise_affine=True)
              (out_proj): Linear(in_features=264, out_features=132, bias=False)
            )
            (drop_path): timm.DropPath(0.1)
          )
          (tanh_proj): Linear(in_features=132, out_features=132, bias=True)
          (sigmoid_proj): Linear(in_features=132, out_features=132, bias=True)
        )
      )
      (vsb_state_proj): Conv2d(132, 128, kernel_size=(1, 1), stride=(1, 1), bias=False)
      (conv_x): Conv2d(4, 896, kernel_size=(5, 5), stride=(1, 1), padding=(2, 2), bias=False)
      (conv_h): Conv2d(128, 512, kernel_size=(5, 5), stride=(1, 1), padding=(2, 2), bias=False)
      (conv_m): Conv2d(128, 384, kernel_size=(5, 5), stride=(1, 1), padding=(2, 2), bias=False)
      (conv_o): Conv2d(256, 128, kernel_size=(5, 5), stride=(1, 1), padding=(2, 2), bias=False)
      (conv_last): Conv2d(256, 128, kernel_size=(1, 1), stride=(1, 1), bias=False)
    )
    (1-3): 3 x SpatioTemporalLSTMCell(
      (scema): SCEMA(
        (sc_conv): ScConv(
          (SRU): SRU(
            (gn): GroupBatchnorm2d()
            (sigomid): Sigmoid()
          )
          (CRU): CRU(
            (squeeze1): Conv2d(128, 64, kernel_size=(1, 1), stride=(1, 1), bias=False)
            (squeeze2): Conv2d(128, 64, kernel_size=(1, 1), stride=(1, 1), bias=False)
            (GWC): Conv2d(64, 256, kernel_size=(3, 3), stride=(1, 1), padding=(1, 1), groups=2)
            (PWC1): Conv2d(64, 256, kernel_size=(1, 1), stride=(1, 1), bias=False)
            (PWC2): Conv2d(64, 192, kernel_size=(1, 1), stride=(1, 1), bias=False)
            (advavg): AdaptiveAvgPool2d(output_size=1)
          )
        )
        (ema): EMA(
          (gn): GroupNorm(8, 256, eps=1e-05, affine=True)
          (softmax): Softmax(dim=-1)
          (agp): AdaptiveAvgPool2d(output_size=(1, 1))
          (pool_h): AdaptiveAvgPool2d(output_size=(None, 1))
          (pool_w): AdaptiveAvgPool2d(output_size=(1, None))
          (conv1x1): Conv2d(32, 32, kernel_size=(1, 1), stride=(1, 1))
          (conv3x3): Conv2d(32, 32, kernel_size=(3, 3), stride=(1, 1), padding=(1, 1))
        )
      )
      (vss_blocks): ModuleList(
        (0): VSB(
          (ln_1): LayerNorm((256,), eps=1e-06, elementwise_affine=True)
          (drop_path): Dropout(p=0.1, inplace=False)
          (vss_block): VSSBlock(
            (ln_1): LayerNorm((256,), eps=1e-06, elementwise_affine=True)
            (self_attention): SS2D(
              (in_proj): Linear(in_features=256, out_features=1024, bias=False)
              (conv2d): Conv2d(512, 512, kernel_size=(3, 3), stride=(1, 1), padding=(1, 1), groups=512)
              (act): SiLU()
              (out_norm): LayerNorm((512,), eps=1e-05, elementwise_affine=True)
              (out_proj): Linear(in_features=512, out_features=256, bias=False)
            )
            (drop_path): timm.DropPath(0.1)
          )
          (tanh_proj): Linear(in_features=256, out_features=256, bias=True)
          (sigmoid_proj): Linear(in_features=256, out_features=256, bias=True)
        )
      )
      (vsb_state_proj): Conv2d(256, 128, kernel_size=(1, 1), stride=(1, 1), bias=False)
      (conv_x): Conv2d(128, 896, kernel_size=(5, 5), stride=(1, 1), padding=(2, 2), bias=False)
      (conv_h): Conv2d(128, 512, kernel_size=(5, 5), stride=(1, 1), padding=(2, 2), bias=False)
      (conv_m): Conv2d(128, 384, kernel_size=(5, 5), stride=(1, 1), padding=(2, 2), bias=False)
      (conv_o): Conv2d(256, 128, kernel_size=(5, 5), stride=(1, 1), padding=(2, 2), bias=False)
      (conv_last): Conv2d(256, 128, kernel_size=(1, 1), stride=(1, 1), bias=False)
    )
  )
  (conv_last): Conv2d(128, 4, kernel_size=(1, 1), stride=(1, 1), bias=False)
)
| module                        | #parameters or shape   | #flops     |
|:------------------------------|:-----------------------|:-----------|
| model                         | 26.446M                | 1.529T     |
|  cell_list                    |  26.446M               |  1.529T    |
|   cell_list.0                 |   4.098M               |   0.236T   |
…
